----------------------------------------------------------------
        Layer (type)               Output Shape         Param #
================================================================
            Conv2d-1          [-1, 128, 56, 56]          18,944
 LayerNorm2dNoBias-2          [-1, 128, 56, 56]             128
              Stem-3          [-1, 128, 56, 56]               0
          Identity-4          [-1, 128, 56, 56]               0
          Identity-5          [-1, 128, 56, 56]               0
 LayerNorm2dNoBias-6          [-1, 128, 56, 56]             128
            Conv2d-7          [-1, 256, 56, 56]          32,768
              ReLU-8          [-1, 256, 56, 56]               0
          StarReLU-9          [-1, 256, 56, 56]               1
           Conv2d-10          [-1, 256, 56, 56]          12,544
         Identity-11          [-1, 256, 56, 56]               0
           Conv2d-12          [-1, 128, 56, 56]          32,768
          SepConv-13          [-1, 128, 56, 56]               0
         Identity-14          [-1, 128, 56, 56]               0
         Identity-15          [-1, 128, 56, 56]               0
         Identity-16          [-1, 128, 56, 56]               0
LayerNorm2dNoBias-17          [-1, 128, 56, 56]             128
           Conv2d-18          [-1, 512, 56, 56]          65,536
             ReLU-19          [-1, 512, 56, 56]               0
         StarReLU-20          [-1, 512, 56, 56]               1
          Dropout-21          [-1, 512, 56, 56]               0
         Identity-22          [-1, 512, 56, 56]               0
           Conv2d-23          [-1, 128, 56, 56]          65,536
          Dropout-24          [-1, 128, 56, 56]               0
              Mlp-25          [-1, 128, 56, 56]               0
         Identity-26          [-1, 128, 56, 56]               0
         Identity-27          [-1, 128, 56, 56]               0
  MetaFormerBlock-28          [-1, 128, 56, 56]               0
         Identity-29          [-1, 128, 56, 56]               0
LayerNorm2dNoBias-30          [-1, 128, 56, 56]             128
           Conv2d-31          [-1, 256, 56, 56]          32,768
             ReLU-32          [-1, 256, 56, 56]               0
         StarReLU-33          [-1, 256, 56, 56]               1
           Conv2d-34          [-1, 256, 56, 56]          12,544
         Identity-35          [-1, 256, 56, 56]               0
           Conv2d-36          [-1, 128, 56, 56]          32,768
          SepConv-37          [-1, 128, 56, 56]               0
         Identity-38          [-1, 128, 56, 56]               0
         Identity-39          [-1, 128, 56, 56]               0
         Identity-40          [-1, 128, 56, 56]               0
LayerNorm2dNoBias-41          [-1, 128, 56, 56]             128
           Conv2d-42          [-1, 512, 56, 56]          65,536
             ReLU-43          [-1, 512, 56, 56]               0
         StarReLU-44          [-1, 512, 56, 56]               1
          Dropout-45          [-1, 512, 56, 56]               0
         Identity-46          [-1, 512, 56, 56]               0
           Conv2d-47          [-1, 128, 56, 56]          65,536
          Dropout-48          [-1, 128, 56, 56]               0
              Mlp-49          [-1, 128, 56, 56]               0
         Identity-50          [-1, 128, 56, 56]               0
         Identity-51          [-1, 128, 56, 56]               0
  MetaFormerBlock-52          [-1, 128, 56, 56]               0
         Identity-53          [-1, 128, 56, 56]               0
LayerNorm2dNoBias-54          [-1, 128, 56, 56]             128
           Conv2d-55          [-1, 256, 56, 56]          32,768
             ReLU-56          [-1, 256, 56, 56]               0
         StarReLU-57          [-1, 256, 56, 56]               1
           Conv2d-58          [-1, 256, 56, 56]          12,544
         Identity-59          [-1, 256, 56, 56]               0
           Conv2d-60          [-1, 128, 56, 56]          32,768
          SepConv-61          [-1, 128, 56, 56]               0
         Identity-62          [-1, 128, 56, 56]               0
         Identity-63          [-1, 128, 56, 56]               0
         Identity-64          [-1, 128, 56, 56]               0
LayerNorm2dNoBias-65          [-1, 128, 56, 56]             128
           Conv2d-66          [-1, 512, 56, 56]          65,536
             ReLU-67          [-1, 512, 56, 56]               0
         StarReLU-68          [-1, 512, 56, 56]               1
          Dropout-69          [-1, 512, 56, 56]               0
         Identity-70          [-1, 512, 56, 56]               0
           Conv2d-71          [-1, 128, 56, 56]          65,536
          Dropout-72          [-1, 128, 56, 56]               0
              Mlp-73          [-1, 128, 56, 56]               0
         Identity-74          [-1, 128, 56, 56]               0
         Identity-75          [-1, 128, 56, 56]               0
  MetaFormerBlock-76          [-1, 128, 56, 56]               0
  MetaFormerStage-77          [-1, 128, 56, 56]               0
LayerNorm2dNoBias-78          [-1, 128, 56, 56]             128
           Conv2d-79          [-1, 256, 28, 28]         295,168
     Downsampling-80          [-1, 256, 28, 28]               0
         Identity-81          [-1, 256, 28, 28]               0
LayerNorm2dNoBias-82          [-1, 256, 28, 28]             256
           Conv2d-83          [-1, 512, 28, 28]         131,072
             ReLU-84          [-1, 512, 28, 28]               0
         StarReLU-85          [-1, 512, 28, 28]               1
           Conv2d-86          [-1, 512, 28, 28]          25,088
         Identity-87          [-1, 512, 28, 28]               0
           Conv2d-88          [-1, 256, 28, 28]         131,072
          SepConv-89          [-1, 256, 28, 28]               0
         Identity-90          [-1, 256, 28, 28]               0
         Identity-91          [-1, 256, 28, 28]               0
         Identity-92          [-1, 256, 28, 28]               0
LayerNorm2dNoBias-93          [-1, 256, 28, 28]             256
           Conv2d-94         [-1, 1024, 28, 28]         262,144
             ReLU-95         [-1, 1024, 28, 28]               0
         StarReLU-96         [-1, 1024, 28, 28]               1
          Dropout-97         [-1, 1024, 28, 28]               0
         Identity-98         [-1, 1024, 28, 28]               0
           Conv2d-99          [-1, 256, 28, 28]         262,144
         Dropout-100          [-1, 256, 28, 28]               0
             Mlp-101          [-1, 256, 28, 28]               0
        Identity-102          [-1, 256, 28, 28]               0
        Identity-103          [-1, 256, 28, 28]               0
 MetaFormerBlock-104          [-1, 256, 28, 28]               0
        Identity-105          [-1, 256, 28, 28]               0
LayerNorm2dNoBias-106          [-1, 256, 28, 28]             256
          Conv2d-107          [-1, 512, 28, 28]         131,072
            ReLU-108          [-1, 512, 28, 28]               0
        StarReLU-109          [-1, 512, 28, 28]               1
          Conv2d-110          [-1, 512, 28, 28]          25,088
        Identity-111          [-1, 512, 28, 28]               0
          Conv2d-112          [-1, 256, 28, 28]         131,072
         SepConv-113          [-1, 256, 28, 28]               0
        Identity-114          [-1, 256, 28, 28]               0
        Identity-115          [-1, 256, 28, 28]               0
        Identity-116          [-1, 256, 28, 28]               0
LayerNorm2dNoBias-117          [-1, 256, 28, 28]             256
          Conv2d-118         [-1, 1024, 28, 28]         262,144
            ReLU-119         [-1, 1024, 28, 28]               0
        StarReLU-120         [-1, 1024, 28, 28]               1
         Dropout-121         [-1, 1024, 28, 28]               0
        Identity-122         [-1, 1024, 28, 28]               0
          Conv2d-123          [-1, 256, 28, 28]         262,144
         Dropout-124          [-1, 256, 28, 28]               0
             Mlp-125          [-1, 256, 28, 28]               0
        Identity-126          [-1, 256, 28, 28]               0
        Identity-127          [-1, 256, 28, 28]               0
 MetaFormerBlock-128          [-1, 256, 28, 28]               0
        Identity-129          [-1, 256, 28, 28]               0
LayerNorm2dNoBias-130          [-1, 256, 28, 28]             256
          Conv2d-131          [-1, 512, 28, 28]         131,072
            ReLU-132          [-1, 512, 28, 28]               0
        StarReLU-133          [-1, 512, 28, 28]               1
          Conv2d-134          [-1, 512, 28, 28]          25,088
        Identity-135          [-1, 512, 28, 28]               0
          Conv2d-136          [-1, 256, 28, 28]         131,072
         SepConv-137          [-1, 256, 28, 28]               0
        Identity-138          [-1, 256, 28, 28]               0
        Identity-139          [-1, 256, 28, 28]               0
        Identity-140          [-1, 256, 28, 28]               0
LayerNorm2dNoBias-141          [-1, 256, 28, 28]             256
          Conv2d-142         [-1, 1024, 28, 28]         262,144
            ReLU-143         [-1, 1024, 28, 28]               0
        StarReLU-144         [-1, 1024, 28, 28]               1
         Dropout-145         [-1, 1024, 28, 28]               0
        Identity-146         [-1, 1024, 28, 28]               0
          Conv2d-147          [-1, 256, 28, 28]         262,144
         Dropout-148          [-1, 256, 28, 28]               0
             Mlp-149          [-1, 256, 28, 28]               0
        Identity-150          [-1, 256, 28, 28]               0
        Identity-151          [-1, 256, 28, 28]               0
 MetaFormerBlock-152          [-1, 256, 28, 28]               0
        Identity-153          [-1, 256, 28, 28]               0
LayerNorm2dNoBias-154          [-1, 256, 28, 28]             256
          Conv2d-155          [-1, 512, 28, 28]         131,072
            ReLU-156          [-1, 512, 28, 28]               0
        StarReLU-157          [-1, 512, 28, 28]               1
          Conv2d-158          [-1, 512, 28, 28]          25,088
        Identity-159          [-1, 512, 28, 28]               0
          Conv2d-160          [-1, 256, 28, 28]         131,072
         SepConv-161          [-1, 256, 28, 28]               0
        Identity-162          [-1, 256, 28, 28]               0
        Identity-163          [-1, 256, 28, 28]               0
        Identity-164          [-1, 256, 28, 28]               0
LayerNorm2dNoBias-165          [-1, 256, 28, 28]             256
          Conv2d-166         [-1, 1024, 28, 28]         262,144
            ReLU-167         [-1, 1024, 28, 28]               0
        StarReLU-168         [-1, 1024, 28, 28]               1
         Dropout-169         [-1, 1024, 28, 28]               0
        Identity-170         [-1, 1024, 28, 28]               0
          Conv2d-171          [-1, 256, 28, 28]         262,144
         Dropout-172          [-1, 256, 28, 28]               0
             Mlp-173          [-1, 256, 28, 28]               0
        Identity-174          [-1, 256, 28, 28]               0
        Identity-175          [-1, 256, 28, 28]               0
 MetaFormerBlock-176          [-1, 256, 28, 28]               0
        Identity-177          [-1, 256, 28, 28]               0
LayerNorm2dNoBias-178          [-1, 256, 28, 28]             256
          Conv2d-179          [-1, 512, 28, 28]         131,072
            ReLU-180          [-1, 512, 28, 28]               0
        StarReLU-181          [-1, 512, 28, 28]               1
          Conv2d-182          [-1, 512, 28, 28]          25,088
        Identity-183          [-1, 512, 28, 28]               0
          Conv2d-184          [-1, 256, 28, 28]         131,072
         SepConv-185          [-1, 256, 28, 28]               0
        Identity-186          [-1, 256, 28, 28]               0
        Identity-187          [-1, 256, 28, 28]               0
        Identity-188          [-1, 256, 28, 28]               0
LayerNorm2dNoBias-189          [-1, 256, 28, 28]             256
          Conv2d-190         [-1, 1024, 28, 28]         262,144
            ReLU-191         [-1, 1024, 28, 28]               0
        StarReLU-192         [-1, 1024, 28, 28]               1
         Dropout-193         [-1, 1024, 28, 28]               0
        Identity-194         [-1, 1024, 28, 28]               0
          Conv2d-195          [-1, 256, 28, 28]         262,144
         Dropout-196          [-1, 256, 28, 28]               0
             Mlp-197          [-1, 256, 28, 28]               0
        Identity-198          [-1, 256, 28, 28]               0
        Identity-199          [-1, 256, 28, 28]               0
 MetaFormerBlock-200          [-1, 256, 28, 28]               0
        Identity-201          [-1, 256, 28, 28]               0
LayerNorm2dNoBias-202          [-1, 256, 28, 28]             256
          Conv2d-203          [-1, 512, 28, 28]         131,072
            ReLU-204          [-1, 512, 28, 28]               0
        StarReLU-205          [-1, 512, 28, 28]               1
          Conv2d-206          [-1, 512, 28, 28]          25,088
        Identity-207          [-1, 512, 28, 28]               0
          Conv2d-208          [-1, 256, 28, 28]         131,072
         SepConv-209          [-1, 256, 28, 28]               0
        Identity-210          [-1, 256, 28, 28]               0
        Identity-211          [-1, 256, 28, 28]               0
        Identity-212          [-1, 256, 28, 28]               0
LayerNorm2dNoBias-213          [-1, 256, 28, 28]             256
          Conv2d-214         [-1, 1024, 28, 28]         262,144
            ReLU-215         [-1, 1024, 28, 28]               0
        StarReLU-216         [-1, 1024, 28, 28]               1
         Dropout-217         [-1, 1024, 28, 28]               0
        Identity-218         [-1, 1024, 28, 28]               0
          Conv2d-219          [-1, 256, 28, 28]         262,144
         Dropout-220          [-1, 256, 28, 28]               0
             Mlp-221          [-1, 256, 28, 28]               0
        Identity-222          [-1, 256, 28, 28]               0
        Identity-223          [-1, 256, 28, 28]               0
 MetaFormerBlock-224          [-1, 256, 28, 28]               0
        Identity-225          [-1, 256, 28, 28]               0
LayerNorm2dNoBias-226          [-1, 256, 28, 28]             256
          Conv2d-227          [-1, 512, 28, 28]         131,072
            ReLU-228          [-1, 512, 28, 28]               0
        StarReLU-229          [-1, 512, 28, 28]               1
          Conv2d-230          [-1, 512, 28, 28]          25,088
        Identity-231          [-1, 512, 28, 28]               0
          Conv2d-232          [-1, 256, 28, 28]         131,072
         SepConv-233          [-1, 256, 28, 28]               0
        Identity-234          [-1, 256, 28, 28]               0
        Identity-235          [-1, 256, 28, 28]               0
        Identity-236          [-1, 256, 28, 28]               0
LayerNorm2dNoBias-237          [-1, 256, 28, 28]             256
          Conv2d-238         [-1, 1024, 28, 28]         262,144
            ReLU-239         [-1, 1024, 28, 28]               0
        StarReLU-240         [-1, 1024, 28, 28]               1
         Dropout-241         [-1, 1024, 28, 28]               0
        Identity-242         [-1, 1024, 28, 28]               0
          Conv2d-243          [-1, 256, 28, 28]         262,144
         Dropout-244          [-1, 256, 28, 28]               0
             Mlp-245          [-1, 256, 28, 28]               0
        Identity-246          [-1, 256, 28, 28]               0
        Identity-247          [-1, 256, 28, 28]               0
 MetaFormerBlock-248          [-1, 256, 28, 28]               0
        Identity-249          [-1, 256, 28, 28]               0
LayerNorm2dNoBias-250          [-1, 256, 28, 28]             256
          Conv2d-251          [-1, 512, 28, 28]         131,072
            ReLU-252          [-1, 512, 28, 28]               0
        StarReLU-253          [-1, 512, 28, 28]               1
          Conv2d-254          [-1, 512, 28, 28]          25,088
        Identity-255          [-1, 512, 28, 28]               0
          Conv2d-256          [-1, 256, 28, 28]         131,072
         SepConv-257          [-1, 256, 28, 28]               0
        Identity-258          [-1, 256, 28, 28]               0
        Identity-259          [-1, 256, 28, 28]               0
        Identity-260          [-1, 256, 28, 28]               0
LayerNorm2dNoBias-261          [-1, 256, 28, 28]             256
          Conv2d-262         [-1, 1024, 28, 28]         262,144
            ReLU-263         [-1, 1024, 28, 28]               0
        StarReLU-264         [-1, 1024, 28, 28]               1
         Dropout-265         [-1, 1024, 28, 28]               0
        Identity-266         [-1, 1024, 28, 28]               0
          Conv2d-267          [-1, 256, 28, 28]         262,144
         Dropout-268          [-1, 256, 28, 28]               0
             Mlp-269          [-1, 256, 28, 28]               0
        Identity-270          [-1, 256, 28, 28]               0
        Identity-271          [-1, 256, 28, 28]               0
 MetaFormerBlock-272          [-1, 256, 28, 28]               0
        Identity-273          [-1, 256, 28, 28]               0
LayerNorm2dNoBias-274          [-1, 256, 28, 28]             256
          Conv2d-275          [-1, 512, 28, 28]         131,072
            ReLU-276          [-1, 512, 28, 28]               0
        StarReLU-277          [-1, 512, 28, 28]               1
          Conv2d-278          [-1, 512, 28, 28]          25,088
        Identity-279          [-1, 512, 28, 28]               0
          Conv2d-280          [-1, 256, 28, 28]         131,072
         SepConv-281          [-1, 256, 28, 28]               0
        Identity-282          [-1, 256, 28, 28]               0
        Identity-283          [-1, 256, 28, 28]               0
        Identity-284          [-1, 256, 28, 28]               0
LayerNorm2dNoBias-285          [-1, 256, 28, 28]             256
          Conv2d-286         [-1, 1024, 28, 28]         262,144
            ReLU-287         [-1, 1024, 28, 28]               0
        StarReLU-288         [-1, 1024, 28, 28]               1
         Dropout-289         [-1, 1024, 28, 28]               0
        Identity-290         [-1, 1024, 28, 28]               0
          Conv2d-291          [-1, 256, 28, 28]         262,144
         Dropout-292          [-1, 256, 28, 28]               0
             Mlp-293          [-1, 256, 28, 28]               0
        Identity-294          [-1, 256, 28, 28]               0
        Identity-295          [-1, 256, 28, 28]               0
 MetaFormerBlock-296          [-1, 256, 28, 28]               0
        Identity-297          [-1, 256, 28, 28]               0
LayerNorm2dNoBias-298          [-1, 256, 28, 28]             256
          Conv2d-299          [-1, 512, 28, 28]         131,072
            ReLU-300          [-1, 512, 28, 28]               0
        StarReLU-301          [-1, 512, 28, 28]               1
          Conv2d-302          [-1, 512, 28, 28]          25,088
        Identity-303          [-1, 512, 28, 28]               0
          Conv2d-304          [-1, 256, 28, 28]         131,072
         SepConv-305          [-1, 256, 28, 28]               0
        Identity-306          [-1, 256, 28, 28]               0
        Identity-307          [-1, 256, 28, 28]               0
        Identity-308          [-1, 256, 28, 28]               0
LayerNorm2dNoBias-309          [-1, 256, 28, 28]             256
          Conv2d-310         [-1, 1024, 28, 28]         262,144
            ReLU-311         [-1, 1024, 28, 28]               0
        StarReLU-312         [-1, 1024, 28, 28]               1
         Dropout-313         [-1, 1024, 28, 28]               0
        Identity-314         [-1, 1024, 28, 28]               0
          Conv2d-315          [-1, 256, 28, 28]         262,144
         Dropout-316          [-1, 256, 28, 28]               0
             Mlp-317          [-1, 256, 28, 28]               0
        Identity-318          [-1, 256, 28, 28]               0
        Identity-319          [-1, 256, 28, 28]               0
 MetaFormerBlock-320          [-1, 256, 28, 28]               0
        Identity-321          [-1, 256, 28, 28]               0
LayerNorm2dNoBias-322          [-1, 256, 28, 28]             256
          Conv2d-323          [-1, 512, 28, 28]         131,072
            ReLU-324          [-1, 512, 28, 28]               0
        StarReLU-325          [-1, 512, 28, 28]               1
          Conv2d-326          [-1, 512, 28, 28]          25,088
        Identity-327          [-1, 512, 28, 28]               0
          Conv2d-328          [-1, 256, 28, 28]         131,072
         SepConv-329          [-1, 256, 28, 28]               0
        Identity-330          [-1, 256, 28, 28]               0
        Identity-331          [-1, 256, 28, 28]               0
        Identity-332          [-1, 256, 28, 28]               0
LayerNorm2dNoBias-333          [-1, 256, 28, 28]             256
          Conv2d-334         [-1, 1024, 28, 28]         262,144
            ReLU-335         [-1, 1024, 28, 28]               0
        StarReLU-336         [-1, 1024, 28, 28]               1
         Dropout-337         [-1, 1024, 28, 28]               0
        Identity-338         [-1, 1024, 28, 28]               0
          Conv2d-339          [-1, 256, 28, 28]         262,144
         Dropout-340          [-1, 256, 28, 28]               0
             Mlp-341          [-1, 256, 28, 28]               0
        Identity-342          [-1, 256, 28, 28]               0
        Identity-343          [-1, 256, 28, 28]               0
 MetaFormerBlock-344          [-1, 256, 28, 28]               0
        Identity-345          [-1, 256, 28, 28]               0
LayerNorm2dNoBias-346          [-1, 256, 28, 28]             256
          Conv2d-347          [-1, 512, 28, 28]         131,072
            ReLU-348          [-1, 512, 28, 28]               0
        StarReLU-349          [-1, 512, 28, 28]               1
          Conv2d-350          [-1, 512, 28, 28]          25,088
        Identity-351          [-1, 512, 28, 28]               0
          Conv2d-352          [-1, 256, 28, 28]         131,072
         SepConv-353          [-1, 256, 28, 28]               0
        Identity-354          [-1, 256, 28, 28]               0
        Identity-355          [-1, 256, 28, 28]               0
        Identity-356          [-1, 256, 28, 28]               0
LayerNorm2dNoBias-357          [-1, 256, 28, 28]             256
          Conv2d-358         [-1, 1024, 28, 28]         262,144
            ReLU-359         [-1, 1024, 28, 28]               0
        StarReLU-360         [-1, 1024, 28, 28]               1
         Dropout-361         [-1, 1024, 28, 28]               0
        Identity-362         [-1, 1024, 28, 28]               0
          Conv2d-363          [-1, 256, 28, 28]         262,144
         Dropout-364          [-1, 256, 28, 28]               0
             Mlp-365          [-1, 256, 28, 28]               0
        Identity-366          [-1, 256, 28, 28]               0
        Identity-367          [-1, 256, 28, 28]               0
 MetaFormerBlock-368          [-1, 256, 28, 28]               0
 MetaFormerStage-369          [-1, 256, 28, 28]               0
LayerNorm2dNoBias-370          [-1, 256, 28, 28]             256
          Conv2d-371          [-1, 512, 14, 14]       1,180,160
    Downsampling-372          [-1, 512, 14, 14]               0
           Scale-373          [-1, 512, 14, 14]               0
LayerNorm2dNoBias-374          [-1, 512, 14, 14]             512
          Conv2d-375         [-1, 1024, 14, 14]         524,288
            ReLU-376         [-1, 1024, 14, 14]               0
        StarReLU-377         [-1, 1024, 14, 14]               1
          Conv2d-378         [-1, 1024, 14, 14]          50,176
        Identity-379         [-1, 1024, 14, 14]               0
          Conv2d-380          [-1, 512, 14, 14]         524,288
         SepConv-381          [-1, 512, 14, 14]               0
        Identity-382          [-1, 512, 14, 14]               0
        Identity-383          [-1, 512, 14, 14]               0
           Scale-384          [-1, 512, 14, 14]               0
LayerNorm2dNoBias-385          [-1, 512, 14, 14]             512
          Conv2d-386         [-1, 2048, 14, 14]       1,048,576
            ReLU-387         [-1, 2048, 14, 14]               0
        StarReLU-388         [-1, 2048, 14, 14]               1
         Dropout-389         [-1, 2048, 14, 14]               0
        Identity-390         [-1, 2048, 14, 14]               0
          Conv2d-391          [-1, 512, 14, 14]       1,048,576
         Dropout-392          [-1, 512, 14, 14]               0
             Mlp-393          [-1, 512, 14, 14]               0
        Identity-394          [-1, 512, 14, 14]               0
        Identity-395          [-1, 512, 14, 14]               0
 MetaFormerBlock-396          [-1, 512, 14, 14]               0
           Scale-397          [-1, 512, 14, 14]               0
LayerNorm2dNoBias-398          [-1, 512, 14, 14]             512
          Conv2d-399         [-1, 1024, 14, 14]         524,288
            ReLU-400         [-1, 1024, 14, 14]               0
        StarReLU-401         [-1, 1024, 14, 14]               1
          Conv2d-402         [-1, 1024, 14, 14]          50,176
        Identity-403         [-1, 1024, 14, 14]               0
          Conv2d-404          [-1, 512, 14, 14]         524,288
         SepConv-405          [-1, 512, 14, 14]               0
        Identity-406          [-1, 512, 14, 14]               0
        Identity-407          [-1, 512, 14, 14]               0
           Scale-408          [-1, 512, 14, 14]               0
LayerNorm2dNoBias-409          [-1, 512, 14, 14]             512
          Conv2d-410         [-1, 2048, 14, 14]       1,048,576
            ReLU-411         [-1, 2048, 14, 14]               0
        StarReLU-412         [-1, 2048, 14, 14]               1
         Dropout-413         [-1, 2048, 14, 14]               0
        Identity-414         [-1, 2048, 14, 14]               0
          Conv2d-415          [-1, 512, 14, 14]       1,048,576
         Dropout-416          [-1, 512, 14, 14]               0
             Mlp-417          [-1, 512, 14, 14]               0
        Identity-418          [-1, 512, 14, 14]               0
        Identity-419          [-1, 512, 14, 14]               0
 MetaFormerBlock-420          [-1, 512, 14, 14]               0
           Scale-421          [-1, 512, 14, 14]               0
LayerNorm2dNoBias-422          [-1, 512, 14, 14]             512
          Conv2d-423         [-1, 1024, 14, 14]         524,288
            ReLU-424         [-1, 1024, 14, 14]               0
        StarReLU-425         [-1, 1024, 14, 14]               1
          Conv2d-426         [-1, 1024, 14, 14]          50,176
        Identity-427         [-1, 1024, 14, 14]               0
          Conv2d-428          [-1, 512, 14, 14]         524,288
         SepConv-429          [-1, 512, 14, 14]               0
        Identity-430          [-1, 512, 14, 14]               0
        Identity-431          [-1, 512, 14, 14]               0
           Scale-432          [-1, 512, 14, 14]               0
LayerNorm2dNoBias-433          [-1, 512, 14, 14]             512
          Conv2d-434         [-1, 2048, 14, 14]       1,048,576
            ReLU-435         [-1, 2048, 14, 14]               0
        StarReLU-436         [-1, 2048, 14, 14]               1
         Dropout-437         [-1, 2048, 14, 14]               0
        Identity-438         [-1, 2048, 14, 14]               0
          Conv2d-439          [-1, 512, 14, 14]       1,048,576
         Dropout-440          [-1, 512, 14, 14]               0
             Mlp-441          [-1, 512, 14, 14]               0
        Identity-442          [-1, 512, 14, 14]               0
        Identity-443          [-1, 512, 14, 14]               0
 MetaFormerBlock-444          [-1, 512, 14, 14]               0
           Scale-445          [-1, 512, 14, 14]               0
LayerNorm2dNoBias-446          [-1, 512, 14, 14]             512
          Conv2d-447         [-1, 1024, 14, 14]         524,288
            ReLU-448         [-1, 1024, 14, 14]               0
        StarReLU-449         [-1, 1024, 14, 14]               1
          Conv2d-450         [-1, 1024, 14, 14]          50,176
        Identity-451         [-1, 1024, 14, 14]               0
          Conv2d-452          [-1, 512, 14, 14]         524,288
         SepConv-453          [-1, 512, 14, 14]               0
        Identity-454          [-1, 512, 14, 14]               0
        Identity-455          [-1, 512, 14, 14]               0
           Scale-456          [-1, 512, 14, 14]               0
LayerNorm2dNoBias-457          [-1, 512, 14, 14]             512
          Conv2d-458         [-1, 2048, 14, 14]       1,048,576
            ReLU-459         [-1, 2048, 14, 14]               0
        StarReLU-460         [-1, 2048, 14, 14]               1
         Dropout-461         [-1, 2048, 14, 14]               0
        Identity-462         [-1, 2048, 14, 14]               0
          Conv2d-463          [-1, 512, 14, 14]       1,048,576
         Dropout-464          [-1, 512, 14, 14]               0
             Mlp-465          [-1, 512, 14, 14]               0
        Identity-466          [-1, 512, 14, 14]               0
        Identity-467          [-1, 512, 14, 14]               0
 MetaFormerBlock-468          [-1, 512, 14, 14]               0
           Scale-469          [-1, 512, 14, 14]               0
LayerNorm2dNoBias-470          [-1, 512, 14, 14]             512
          Conv2d-471         [-1, 1024, 14, 14]         524,288
            ReLU-472         [-1, 1024, 14, 14]               0
        StarReLU-473         [-1, 1024, 14, 14]               1
          Conv2d-474         [-1, 1024, 14, 14]          50,176
        Identity-475         [-1, 1024, 14, 14]               0
          Conv2d-476          [-1, 512, 14, 14]         524,288
         SepConv-477          [-1, 512, 14, 14]               0
        Identity-478          [-1, 512, 14, 14]               0
        Identity-479          [-1, 512, 14, 14]               0
           Scale-480          [-1, 512, 14, 14]               0
LayerNorm2dNoBias-481          [-1, 512, 14, 14]             512
          Conv2d-482         [-1, 2048, 14, 14]       1,048,576
            ReLU-483         [-1, 2048, 14, 14]               0
        StarReLU-484         [-1, 2048, 14, 14]               1
         Dropout-485         [-1, 2048, 14, 14]               0
        Identity-486         [-1, 2048, 14, 14]               0
          Conv2d-487          [-1, 512, 14, 14]       1,048,576
         Dropout-488          [-1, 512, 14, 14]               0
             Mlp-489          [-1, 512, 14, 14]               0
        Identity-490          [-1, 512, 14, 14]               0
        Identity-491          [-1, 512, 14, 14]               0
 MetaFormerBlock-492          [-1, 512, 14, 14]               0
           Scale-493          [-1, 512, 14, 14]               0
LayerNorm2dNoBias-494          [-1, 512, 14, 14]             512
          Conv2d-495         [-1, 1024, 14, 14]         524,288
            ReLU-496         [-1, 1024, 14, 14]               0
        StarReLU-497         [-1, 1024, 14, 14]               1
          Conv2d-498         [-1, 1024, 14, 14]          50,176
        Identity-499         [-1, 1024, 14, 14]               0
          Conv2d-500          [-1, 512, 14, 14]         524,288
         SepConv-501          [-1, 512, 14, 14]               0
        Identity-502          [-1, 512, 14, 14]               0
        Identity-503          [-1, 512, 14, 14]               0
           Scale-504          [-1, 512, 14, 14]               0
LayerNorm2dNoBias-505          [-1, 512, 14, 14]             512
          Conv2d-506         [-1, 2048, 14, 14]       1,048,576
            ReLU-507         [-1, 2048, 14, 14]               0
        StarReLU-508         [-1, 2048, 14, 14]               1
         Dropout-509         [-1, 2048, 14, 14]               0
        Identity-510         [-1, 2048, 14, 14]               0
          Conv2d-511          [-1, 512, 14, 14]       1,048,576
         Dropout-512          [-1, 512, 14, 14]               0
             Mlp-513          [-1, 512, 14, 14]               0
        Identity-514          [-1, 512, 14, 14]               0
        Identity-515          [-1, 512, 14, 14]               0
 MetaFormerBlock-516          [-1, 512, 14, 14]               0
           Scale-517          [-1, 512, 14, 14]               0
LayerNorm2dNoBias-518          [-1, 512, 14, 14]             512
          Conv2d-519         [-1, 1024, 14, 14]         524,288
            ReLU-520         [-1, 1024, 14, 14]               0
        StarReLU-521         [-1, 1024, 14, 14]               1
          Conv2d-522         [-1, 1024, 14, 14]          50,176
        Identity-523         [-1, 1024, 14, 14]               0
          Conv2d-524          [-1, 512, 14, 14]         524,288
         SepConv-525          [-1, 512, 14, 14]               0
        Identity-526          [-1, 512, 14, 14]               0
        Identity-527          [-1, 512, 14, 14]               0
           Scale-528          [-1, 512, 14, 14]               0
LayerNorm2dNoBias-529          [-1, 512, 14, 14]             512
          Conv2d-530         [-1, 2048, 14, 14]       1,048,576
            ReLU-531         [-1, 2048, 14, 14]               0
        StarReLU-532         [-1, 2048, 14, 14]               1
         Dropout-533         [-1, 2048, 14, 14]               0
        Identity-534         [-1, 2048, 14, 14]               0
          Conv2d-535          [-1, 512, 14, 14]       1,048,576
         Dropout-536          [-1, 512, 14, 14]               0
             Mlp-537          [-1, 512, 14, 14]               0
        Identity-538          [-1, 512, 14, 14]               0
        Identity-539          [-1, 512, 14, 14]               0
 MetaFormerBlock-540          [-1, 512, 14, 14]               0
           Scale-541          [-1, 512, 14, 14]               0
LayerNorm2dNoBias-542          [-1, 512, 14, 14]             512
          Conv2d-543         [-1, 1024, 14, 14]         524,288
            ReLU-544         [-1, 1024, 14, 14]               0
        StarReLU-545         [-1, 1024, 14, 14]               1
          Conv2d-546         [-1, 1024, 14, 14]          50,176
        Identity-547         [-1, 1024, 14, 14]               0
          Conv2d-548          [-1, 512, 14, 14]         524,288
         SepConv-549          [-1, 512, 14, 14]               0
        Identity-550          [-1, 512, 14, 14]               0
        Identity-551          [-1, 512, 14, 14]               0
           Scale-552          [-1, 512, 14, 14]               0
LayerNorm2dNoBias-553          [-1, 512, 14, 14]             512
          Conv2d-554         [-1, 2048, 14, 14]       1,048,576
            ReLU-555         [-1, 2048, 14, 14]               0
        StarReLU-556         [-1, 2048, 14, 14]               1
         Dropout-557         [-1, 2048, 14, 14]               0
        Identity-558         [-1, 2048, 14, 14]               0
          Conv2d-559          [-1, 512, 14, 14]       1,048,576
         Dropout-560          [-1, 512, 14, 14]               0
             Mlp-561          [-1, 512, 14, 14]               0
        Identity-562          [-1, 512, 14, 14]               0
        Identity-563          [-1, 512, 14, 14]               0
 MetaFormerBlock-564          [-1, 512, 14, 14]               0
           Scale-565          [-1, 512, 14, 14]               0
LayerNorm2dNoBias-566          [-1, 512, 14, 14]             512
          Conv2d-567         [-1, 1024, 14, 14]         524,288
            ReLU-568         [-1, 1024, 14, 14]               0
        StarReLU-569         [-1, 1024, 14, 14]               1
          Conv2d-570         [-1, 1024, 14, 14]          50,176
        Identity-571         [-1, 1024, 14, 14]               0
          Conv2d-572          [-1, 512, 14, 14]         524,288
         SepConv-573          [-1, 512, 14, 14]               0
        Identity-574          [-1, 512, 14, 14]               0
        Identity-575          [-1, 512, 14, 14]               0
           Scale-576          [-1, 512, 14, 14]               0
LayerNorm2dNoBias-577          [-1, 512, 14, 14]             512
          Conv2d-578         [-1, 2048, 14, 14]       1,048,576
            ReLU-579         [-1, 2048, 14, 14]               0
        StarReLU-580         [-1, 2048, 14, 14]               1
         Dropout-581         [-1, 2048, 14, 14]               0
        Identity-582         [-1, 2048, 14, 14]               0
          Conv2d-583          [-1, 512, 14, 14]       1,048,576
         Dropout-584          [-1, 512, 14, 14]               0
             Mlp-585          [-1, 512, 14, 14]               0
        Identity-586          [-1, 512, 14, 14]               0
        Identity-587          [-1, 512, 14, 14]               0
 MetaFormerBlock-588          [-1, 512, 14, 14]               0
           Scale-589          [-1, 512, 14, 14]               0
LayerNorm2dNoBias-590          [-1, 512, 14, 14]             512
          Conv2d-591         [-1, 1024, 14, 14]         524,288
            ReLU-592         [-1, 1024, 14, 14]               0
        StarReLU-593         [-1, 1024, 14, 14]               1
          Conv2d-594         [-1, 1024, 14, 14]          50,176
        Identity-595         [-1, 1024, 14, 14]               0
          Conv2d-596          [-1, 512, 14, 14]         524,288
         SepConv-597          [-1, 512, 14, 14]               0
        Identity-598          [-1, 512, 14, 14]               0
        Identity-599          [-1, 512, 14, 14]               0
           Scale-600          [-1, 512, 14, 14]               0
LayerNorm2dNoBias-601          [-1, 512, 14, 14]             512
          Conv2d-602         [-1, 2048, 14, 14]       1,048,576
            ReLU-603         [-1, 2048, 14, 14]               0
        StarReLU-604         [-1, 2048, 14, 14]               1
         Dropout-605         [-1, 2048, 14, 14]               0
        Identity-606         [-1, 2048, 14, 14]               0
          Conv2d-607          [-1, 512, 14, 14]       1,048,576
         Dropout-608          [-1, 512, 14, 14]               0
             Mlp-609          [-1, 512, 14, 14]               0
        Identity-610          [-1, 512, 14, 14]               0
        Identity-611          [-1, 512, 14, 14]               0
 MetaFormerBlock-612          [-1, 512, 14, 14]               0
           Scale-613          [-1, 512, 14, 14]               0
LayerNorm2dNoBias-614          [-1, 512, 14, 14]             512
          Conv2d-615         [-1, 1024, 14, 14]         524,288
            ReLU-616         [-1, 1024, 14, 14]               0
        StarReLU-617         [-1, 1024, 14, 14]               1
          Conv2d-618         [-1, 1024, 14, 14]          50,176
        Identity-619         [-1, 1024, 14, 14]               0
          Conv2d-620          [-1, 512, 14, 14]         524,288
         SepConv-621          [-1, 512, 14, 14]               0
        Identity-622          [-1, 512, 14, 14]               0
        Identity-623          [-1, 512, 14, 14]               0
           Scale-624          [-1, 512, 14, 14]               0
LayerNorm2dNoBias-625          [-1, 512, 14, 14]             512
          Conv2d-626         [-1, 2048, 14, 14]       1,048,576
            ReLU-627         [-1, 2048, 14, 14]               0
        StarReLU-628         [-1, 2048, 14, 14]               1
         Dropout-629         [-1, 2048, 14, 14]               0
        Identity-630         [-1, 2048, 14, 14]               0
          Conv2d-631          [-1, 512, 14, 14]       1,048,576
         Dropout-632          [-1, 512, 14, 14]               0
             Mlp-633          [-1, 512, 14, 14]               0
        Identity-634          [-1, 512, 14, 14]               0
        Identity-635          [-1, 512, 14, 14]               0
 MetaFormerBlock-636          [-1, 512, 14, 14]               0
           Scale-637          [-1, 512, 14, 14]               0
LayerNorm2dNoBias-638          [-1, 512, 14, 14]             512
          Conv2d-639         [-1, 1024, 14, 14]         524,288
            ReLU-640         [-1, 1024, 14, 14]               0
        StarReLU-641         [-1, 1024, 14, 14]               1
          Conv2d-642         [-1, 1024, 14, 14]          50,176
        Identity-643         [-1, 1024, 14, 14]               0
          Conv2d-644          [-1, 512, 14, 14]         524,288
         SepConv-645          [-1, 512, 14, 14]               0
        Identity-646          [-1, 512, 14, 14]               0
        Identity-647          [-1, 512, 14, 14]               0
           Scale-648          [-1, 512, 14, 14]               0
LayerNorm2dNoBias-649          [-1, 512, 14, 14]             512
          Conv2d-650         [-1, 2048, 14, 14]       1,048,576
            ReLU-651         [-1, 2048, 14, 14]               0
        StarReLU-652         [-1, 2048, 14, 14]               1
         Dropout-653         [-1, 2048, 14, 14]               0
        Identity-654         [-1, 2048, 14, 14]               0
          Conv2d-655          [-1, 512, 14, 14]       1,048,576
         Dropout-656          [-1, 512, 14, 14]               0
             Mlp-657          [-1, 512, 14, 14]               0
        Identity-658          [-1, 512, 14, 14]               0
        Identity-659          [-1, 512, 14, 14]               0
 MetaFormerBlock-660          [-1, 512, 14, 14]               0
           Scale-661          [-1, 512, 14, 14]               0
LayerNorm2dNoBias-662          [-1, 512, 14, 14]             512
          Conv2d-663         [-1, 1024, 14, 14]         524,288
            ReLU-664         [-1, 1024, 14, 14]               0
        StarReLU-665         [-1, 1024, 14, 14]               1
          Conv2d-666         [-1, 1024, 14, 14]          50,176
        Identity-667         [-1, 1024, 14, 14]               0
          Conv2d-668          [-1, 512, 14, 14]         524,288
         SepConv-669          [-1, 512, 14, 14]               0
        Identity-670          [-1, 512, 14, 14]               0
        Identity-671          [-1, 512, 14, 14]               0
           Scale-672          [-1, 512, 14, 14]               0
LayerNorm2dNoBias-673          [-1, 512, 14, 14]             512
          Conv2d-674         [-1, 2048, 14, 14]       1,048,576
            ReLU-675         [-1, 2048, 14, 14]               0
        StarReLU-676         [-1, 2048, 14, 14]               1
         Dropout-677         [-1, 2048, 14, 14]               0
        Identity-678         [-1, 2048, 14, 14]               0
          Conv2d-679          [-1, 512, 14, 14]       1,048,576
         Dropout-680          [-1, 512, 14, 14]               0
             Mlp-681          [-1, 512, 14, 14]               0
        Identity-682          [-1, 512, 14, 14]               0
        Identity-683          [-1, 512, 14, 14]               0
 MetaFormerBlock-684          [-1, 512, 14, 14]               0
           Scale-685          [-1, 512, 14, 14]               0
LayerNorm2dNoBias-686          [-1, 512, 14, 14]             512
          Conv2d-687         [-1, 1024, 14, 14]         524,288
            ReLU-688         [-1, 1024, 14, 14]               0
        StarReLU-689         [-1, 1024, 14, 14]               1
          Conv2d-690         [-1, 1024, 14, 14]          50,176
        Identity-691         [-1, 1024, 14, 14]               0
          Conv2d-692          [-1, 512, 14, 14]         524,288
         SepConv-693          [-1, 512, 14, 14]               0
        Identity-694          [-1, 512, 14, 14]               0
        Identity-695          [-1, 512, 14, 14]               0
           Scale-696          [-1, 512, 14, 14]               0
LayerNorm2dNoBias-697          [-1, 512, 14, 14]             512
          Conv2d-698         [-1, 2048, 14, 14]       1,048,576
            ReLU-699         [-1, 2048, 14, 14]               0
        StarReLU-700         [-1, 2048, 14, 14]               1
         Dropout-701         [-1, 2048, 14, 14]               0
        Identity-702         [-1, 2048, 14, 14]               0
          Conv2d-703          [-1, 512, 14, 14]       1,048,576
         Dropout-704          [-1, 512, 14, 14]               0
             Mlp-705          [-1, 512, 14, 14]               0
        Identity-706          [-1, 512, 14, 14]               0
        Identity-707          [-1, 512, 14, 14]               0
 MetaFormerBlock-708          [-1, 512, 14, 14]               0
           Scale-709          [-1, 512, 14, 14]               0
LayerNorm2dNoBias-710          [-1, 512, 14, 14]             512
          Conv2d-711         [-1, 1024, 14, 14]         524,288
            ReLU-712         [-1, 1024, 14, 14]               0
        StarReLU-713         [-1, 1024, 14, 14]               1
          Conv2d-714         [-1, 1024, 14, 14]          50,176
        Identity-715         [-1, 1024, 14, 14]               0
          Conv2d-716          [-1, 512, 14, 14]         524,288
         SepConv-717          [-1, 512, 14, 14]               0
        Identity-718          [-1, 512, 14, 14]               0
        Identity-719          [-1, 512, 14, 14]               0
           Scale-720          [-1, 512, 14, 14]               0
LayerNorm2dNoBias-721          [-1, 512, 14, 14]             512
          Conv2d-722         [-1, 2048, 14, 14]       1,048,576
            ReLU-723         [-1, 2048, 14, 14]               0
        StarReLU-724         [-1, 2048, 14, 14]               1
         Dropout-725         [-1, 2048, 14, 14]               0
        Identity-726         [-1, 2048, 14, 14]               0
          Conv2d-727          [-1, 512, 14, 14]       1,048,576
         Dropout-728          [-1, 512, 14, 14]               0
             Mlp-729          [-1, 512, 14, 14]               0
        Identity-730          [-1, 512, 14, 14]               0
        Identity-731          [-1, 512, 14, 14]               0
 MetaFormerBlock-732          [-1, 512, 14, 14]               0
           Scale-733          [-1, 512, 14, 14]               0
LayerNorm2dNoBias-734          [-1, 512, 14, 14]             512
          Conv2d-735         [-1, 1024, 14, 14]         524,288
            ReLU-736         [-1, 1024, 14, 14]               0
        StarReLU-737         [-1, 1024, 14, 14]               1
          Conv2d-738         [-1, 1024, 14, 14]          50,176
        Identity-739         [-1, 1024, 14, 14]               0
          Conv2d-740          [-1, 512, 14, 14]         524,288
         SepConv-741          [-1, 512, 14, 14]               0
        Identity-742          [-1, 512, 14, 14]               0
        Identity-743          [-1, 512, 14, 14]               0
           Scale-744          [-1, 512, 14, 14]               0
LayerNorm2dNoBias-745          [-1, 512, 14, 14]             512
          Conv2d-746         [-1, 2048, 14, 14]       1,048,576
            ReLU-747         [-1, 2048, 14, 14]               0
        StarReLU-748         [-1, 2048, 14, 14]               1
         Dropout-749         [-1, 2048, 14, 14]               0
        Identity-750         [-1, 2048, 14, 14]               0
          Conv2d-751          [-1, 512, 14, 14]       1,048,576
         Dropout-752          [-1, 512, 14, 14]               0
             Mlp-753          [-1, 512, 14, 14]               0
        Identity-754          [-1, 512, 14, 14]               0
        Identity-755          [-1, 512, 14, 14]               0
 MetaFormerBlock-756          [-1, 512, 14, 14]               0
           Scale-757          [-1, 512, 14, 14]               0
LayerNorm2dNoBias-758          [-1, 512, 14, 14]             512
          Conv2d-759         [-1, 1024, 14, 14]         524,288
            ReLU-760         [-1, 1024, 14, 14]               0
        StarReLU-761         [-1, 1024, 14, 14]               1
          Conv2d-762         [-1, 1024, 14, 14]          50,176
        Identity-763         [-1, 1024, 14, 14]               0
          Conv2d-764          [-1, 512, 14, 14]         524,288
         SepConv-765          [-1, 512, 14, 14]               0
        Identity-766          [-1, 512, 14, 14]               0
        Identity-767          [-1, 512, 14, 14]               0
           Scale-768          [-1, 512, 14, 14]               0
LayerNorm2dNoBias-769          [-1, 512, 14, 14]             512
          Conv2d-770         [-1, 2048, 14, 14]       1,048,576
            ReLU-771         [-1, 2048, 14, 14]               0
        StarReLU-772         [-1, 2048, 14, 14]               1
         Dropout-773         [-1, 2048, 14, 14]               0
        Identity-774         [-1, 2048, 14, 14]               0
          Conv2d-775          [-1, 512, 14, 14]       1,048,576
         Dropout-776          [-1, 512, 14, 14]               0
             Mlp-777          [-1, 512, 14, 14]               0
        Identity-778          [-1, 512, 14, 14]               0
        Identity-779          [-1, 512, 14, 14]               0
 MetaFormerBlock-780          [-1, 512, 14, 14]               0
           Scale-781          [-1, 512, 14, 14]               0
LayerNorm2dNoBias-782          [-1, 512, 14, 14]             512
          Conv2d-783         [-1, 1024, 14, 14]         524,288
            ReLU-784         [-1, 1024, 14, 14]               0
        StarReLU-785         [-1, 1024, 14, 14]               1
          Conv2d-786         [-1, 1024, 14, 14]          50,176
        Identity-787         [-1, 1024, 14, 14]               0
          Conv2d-788          [-1, 512, 14, 14]         524,288
         SepConv-789          [-1, 512, 14, 14]               0
        Identity-790          [-1, 512, 14, 14]               0
        Identity-791          [-1, 512, 14, 14]               0
           Scale-792          [-1, 512, 14, 14]               0
LayerNorm2dNoBias-793          [-1, 512, 14, 14]             512
          Conv2d-794         [-1, 2048, 14, 14]       1,048,576
            ReLU-795         [-1, 2048, 14, 14]               0
        StarReLU-796         [-1, 2048, 14, 14]               1
         Dropout-797         [-1, 2048, 14, 14]               0
        Identity-798         [-1, 2048, 14, 14]               0
          Conv2d-799          [-1, 512, 14, 14]       1,048,576
         Dropout-800          [-1, 512, 14, 14]               0
             Mlp-801          [-1, 512, 14, 14]               0
        Identity-802          [-1, 512, 14, 14]               0
        Identity-803          [-1, 512, 14, 14]               0
 MetaFormerBlock-804          [-1, 512, 14, 14]               0
 MetaFormerStage-805          [-1, 512, 14, 14]               0
LayerNorm2dNoBias-806          [-1, 512, 14, 14]             512
          Conv2d-807            [-1, 768, 7, 7]       3,539,712
    Downsampling-808            [-1, 768, 7, 7]               0
           Scale-809            [-1, 768, 7, 7]               0
LayerNorm2dNoBias-810            [-1, 768, 7, 7]             768
          Conv2d-811           [-1, 1536, 7, 7]       1,179,648
            ReLU-812           [-1, 1536, 7, 7]               0
        StarReLU-813           [-1, 1536, 7, 7]               1
          Conv2d-814           [-1, 1536, 7, 7]          75,264
        Identity-815           [-1, 1536, 7, 7]               0
          Conv2d-816            [-1, 768, 7, 7]       1,179,648
         SepConv-817            [-1, 768, 7, 7]               0
        Identity-818            [-1, 768, 7, 7]               0
        Identity-819            [-1, 768, 7, 7]               0
           Scale-820            [-1, 768, 7, 7]               0
LayerNorm2dNoBias-821            [-1, 768, 7, 7]             768
          Conv2d-822           [-1, 3072, 7, 7]       2,359,296
            ReLU-823           [-1, 3072, 7, 7]               0
        StarReLU-824           [-1, 3072, 7, 7]               1
         Dropout-825           [-1, 3072, 7, 7]               0
        Identity-826           [-1, 3072, 7, 7]               0
          Conv2d-827            [-1, 768, 7, 7]       2,359,296
         Dropout-828            [-1, 768, 7, 7]               0
             Mlp-829            [-1, 768, 7, 7]               0
        Identity-830            [-1, 768, 7, 7]               0
        Identity-831            [-1, 768, 7, 7]               0
 MetaFormerBlock-832            [-1, 768, 7, 7]               0
           Scale-833            [-1, 768, 7, 7]               0
LayerNorm2dNoBias-834            [-1, 768, 7, 7]             768
          Conv2d-835           [-1, 1536, 7, 7]       1,179,648
            ReLU-836           [-1, 1536, 7, 7]               0
        StarReLU-837           [-1, 1536, 7, 7]               1
          Conv2d-838           [-1, 1536, 7, 7]          75,264
        Identity-839           [-1, 1536, 7, 7]               0
          Conv2d-840            [-1, 768, 7, 7]       1,179,648
         SepConv-841            [-1, 768, 7, 7]               0
        Identity-842            [-1, 768, 7, 7]               0
        Identity-843            [-1, 768, 7, 7]               0
           Scale-844            [-1, 768, 7, 7]               0
LayerNorm2dNoBias-845            [-1, 768, 7, 7]             768
          Conv2d-846           [-1, 3072, 7, 7]       2,359,296
            ReLU-847           [-1, 3072, 7, 7]               0
        StarReLU-848           [-1, 3072, 7, 7]               1
         Dropout-849           [-1, 3072, 7, 7]               0
        Identity-850           [-1, 3072, 7, 7]               0
          Conv2d-851            [-1, 768, 7, 7]       2,359,296
         Dropout-852            [-1, 768, 7, 7]               0
             Mlp-853            [-1, 768, 7, 7]               0
        Identity-854            [-1, 768, 7, 7]               0
        Identity-855            [-1, 768, 7, 7]               0
 MetaFormerBlock-856            [-1, 768, 7, 7]               0
           Scale-857            [-1, 768, 7, 7]               0
LayerNorm2dNoBias-858            [-1, 768, 7, 7]             768
          Conv2d-859           [-1, 1536, 7, 7]       1,179,648
            ReLU-860           [-1, 1536, 7, 7]               0
        StarReLU-861           [-1, 1536, 7, 7]               1
          Conv2d-862           [-1, 1536, 7, 7]          75,264
        Identity-863           [-1, 1536, 7, 7]               0
          Conv2d-864            [-1, 768, 7, 7]       1,179,648
         SepConv-865            [-1, 768, 7, 7]               0
        Identity-866            [-1, 768, 7, 7]               0
        Identity-867            [-1, 768, 7, 7]               0
           Scale-868            [-1, 768, 7, 7]               0
LayerNorm2dNoBias-869            [-1, 768, 7, 7]             768
          Conv2d-870           [-1, 3072, 7, 7]       2,359,296
            ReLU-871           [-1, 3072, 7, 7]               0
        StarReLU-872           [-1, 3072, 7, 7]               1
         Dropout-873           [-1, 3072, 7, 7]               0
        Identity-874           [-1, 3072, 7, 7]               0
          Conv2d-875            [-1, 768, 7, 7]       2,359,296
         Dropout-876            [-1, 768, 7, 7]               0
             Mlp-877            [-1, 768, 7, 7]               0
        Identity-878            [-1, 768, 7, 7]               0
        Identity-879            [-1, 768, 7, 7]               0
 MetaFormerBlock-880            [-1, 768, 7, 7]               0
 MetaFormerStage-881            [-1, 768, 7, 7]               0
AdaptiveAvgPool2d-882            [-1, 768, 1, 1]               0
        Identity-883            [-1, 768, 1, 1]               0
SelectAdaptivePool2d-884            [-1, 768, 1, 1]               0
     LayerNorm2d-885            [-1, 768, 1, 1]           1,536
         Flatten-886                  [-1, 768]               0
         Dropout-887                  [-1, 768]               0
          Linear-888                 [-1, 3072]       2,362,368
            ReLU-889                 [-1, 3072]               0
     SquaredReLU-890                 [-1, 3072]               0
       LayerNorm-891                 [-1, 3072]           6,144
         Dropout-892                 [-1, 3072]               0
          Linear-893                 [-1, 1000]       3,073,000
         MlpHead-894                 [-1, 1000]               0
================================================================
Total params: 99,859,504
Trainable params: 99,859,432
Non-trainable params: 72
----------------------------------------------------------------
Input size (MB): 0.57
Forward/backward pass size (MB): 1885.61
Params size (MB): 380.93
Estimated Total Size (MB): 2267.12
----------------------------------------------------------------
None
